…
else \"cpu\")\n","model.to(device)"],"metadata":{"id":"yB53AMZLVliM","colab":{"base_uri":"https://localhost:8080/"},"outputId":"5ad9af40-0f2c-4836-b9d0-783cb256ca1c","executionInfo":{"status":"ok","timestamp":1735908096948,"user_tz":-180,"elapsed":1023,"user":{"displayName":"Abdullah İşler","userId":"05198455713190770364"}}},"execution_count":27,"outputs":[{"output_type":"execute_result","data":{"text/plain":["ASTForAudioClassification(\n","  (audio_spectrogram_transformer): ASTModel(\n","    (embeddings): ASTEmbeddings(\n","      (patch_embeddings): ASTPatchEmbeddings(\n","        (projection): Conv2d(1, 768, kernel_size=(16, 16), stride=(10, 10))\n","      )\n","      (dropout): Dropout(p=0.0, inplace=False)\n","    )\n","    (encoder): ASTEncoder(\n","      (layer): ModuleList(\n","        (0-11): 12 x ASTLayer(\n","          (attention): ASTSdpaAttention(\n","            (attention): ASTSdpaSelfAttention(\n","              (query): Linear(in_features=768, out_features=768, bias=True)\n","              (key): Linear(in_features=768, out_features=768, bias=True)\n","              (value): Linear(in_features=768, out_features=768, bias=True)\n","              (dropout): Dropout(p=0.0, inplace=False)\n","            )\n","            (output): ASTSelfOutput(\n","              (dense): Linear(in_features=768, out_features=768, bias=True)\n","              (dropout): Dropout(p=0.0, inplace=False)\n","            )\n","          )\n","          (intermediate): ASTIntermediate(\n","            (dense): Linear(in_features=768, out_features=3072, bias=True)\n","            (intermediate_act_fn): GELUActivation()\n","          )\n","          (output): ASTOutput(\n","            (dense): Linear(in_features=3072, out_features=768, bias=True)\n","            (dropout): Dropout(p=0.0, inplace=False)\n","          )\n","          (layernorm_before): LayerNorm((768,), eps=1e-12, elementwise_affine=True)\n","          (layernorm_after): LayerNorm((768,), eps=1e-12, elementwise_affine=True)\n","        )\n","      )\n","    )\n","    (layernorm): LayerNorm((768,), eps=1e-12, elementwise_affine=True)\n","  )\n","  (classifier): ASTMLPHead(\n","    (layernorm): LayerNorm((768,), eps=1e-12, elementwise_affine=True)\n","    (dense): Linear(in_features=768, out_features=5, bias=True)\n","  )\n",")"]},"metadata":{},"execution_count":27}]},{"cell_type":"code","source":["def train_epoch(model, train_loader, optimizer, device):\n","    model.train()\n","    total_loss = 0\n","    correct_predictions = 0\n","\n","    for batch in train_loader:\n","        input_values, labels = batch\n","        input_values = input_values.to(device)\n","
…
